project1/driver_monitor_model.pth (torch, 88720 bytes, 36 tensors)

lstm.weight_ih_l0 f4 [20, 136]
00000000: 6682 e0be 7c69 193d 39ec 7f3e 3b18 053d
00000010: 2d7a 1ebf 7e6d d4be 768a 1ebe 1db3 82be
00000020: fc38 efbb e16b 55bf d6fc 813d a8aa 4ebf
00000030: d9c7 aabe 6fbf 8dbe 4e18 c93e 6692 22bf
00000040: f561 0cbf b05d 02bf b6ca 17bf a884 a4be
00000050: fede 013f 1f99 97be 6639 49bd 1419 8b3e
00000060: a43f d63c 5efc ab3e e915 dfbd eee7 06be
00000070: e483 573e 8d21 c5be 2899 5a3e 427d 19be
00000080: abab b13d 8cd6 603d 5223 163f 1052 013f
00000090: d3dc c4be 35d4 2ebd f123 5ebe 3d4b 213d
000000a0: 59b1 c33e 004e da3e d5db 4dbf b86f 843e
000000b0: 026e cf3e aae8 fd3d 5b5b f5be 7e4c ce3e
000000c0: 6695 da3d c7f0 a93e e784 59be ee4b 183e
000000d0: 4d66 2cbf c508 42be e771 09be b780 9cbd
000000e0: c923 9f3e 6b04 01bf c80c 923e 0250 983e
000000f0: 176f 0cbf 7e48 ba3e 9f69 5a3e 5aa4 cf3e
00000100: 036d 983d 6798 45bf 0125 13be e1e3 26be
00000110: 3518 8ebd 61ab c6be 7bf6 bb3e f073 673e
00000120: eb79 11bf be7a 7c3d 04b6 493e 6561 013f
00000130: f20b 413e 2efe 4b3e 6151 0e3f 2aa0 58be
00000140: 9627 ac3e 6c92 ce3e b214 9d3e 8a45 933e
00000150: 82ed 09bf b463 57be 3c29 d33d 4c5e a13e
00000160: e9e5 0a3e 811e 8cbe e1bb 593e 04c8 293f
00000170: 54a8 6f3c cad0 2b3f 6ab9 ef3e 87fe 053e
00000180: 5624 73bd cec6 f1bd b578 0cbd 97d5 e63e
00000190: a165 673e cebb 7d3f 19df aabe f655 033f
000001a0: 651f 173c ab64 a43d f68d 383f b691 39bf
000001b0: efeb 9abe baca 6a39 6984 3fbf 4431 5cbf
000001c0: 973f 78bd 1c55 083e dac5 d33d 9a43 4ebc
000001d0: c70f 3ebf 1802 03bf 2675 8ebc 92ec d1be
000001e0: 6242 25bf a57a 163e 6b1b 25be a437 de3e
000001f0: bfcc 9fbe 2d5f d1bd 3ddb e3be 87a1 8cbe
00000200: fd50 73be acb2 a23e 517a 92bd e561 07be
00000210: 8e47 0abf 07a5 063d 91d1 883d 38e1 553c
00000220: ef4b 183e 61c3 e23e 52f9 923e b5ea 1e3e
00000230: 8b8b ce3e 09db 6abe bf31 be3d 0eea 47be
00000240: e5d8 113f 9376 5abe 4270 ba3d 3faa 9c3e
00000250: 3403 81bd a2dc b1be 4e80 34bf b30d 083f
00000260: 77bb de3e 582b 063f 1688 053e 8df8 373e
00000270: 9fbc 5bbd 3a9b cf3e 1200 edbd 99d7 453c
00000280: e25c 68bd 920a 023f 01bf 85be 28e0 f13d
00000290: 0981 283f 24f5 893e 28c6 c9be fb42 83be
000002a0: c870 8c3a 573a c2be 655c 933e 5092 8a3e
000002b0: 4256 943e 52c2 863e 64d0 12be 7b9a e2bd
000002c0: f4f2 bd3e 11cf 583e ad1b 13bf d213 e6be
000002d0: 6db6 fabe fa64 d5bd 4b6a d0be d603 31be
000002e0: bb01 70be bad7 74be 3566 75be ea44 163f
000002f0: 7bf2 9a3d c467 903e 96ba 4ebc 6dd8 5fbd
00000300: 0bdb 04be 8687 b43e c88b b33e c310 813d
00000310: 289b 21be 71c3 88be 100b 2cbe 1b12 cdbc
00000320: a6c2 39bf bc32 843e b233 6ebe 7ce2 56bd
00000330: 2ab8 933e 56b8 e7be 9ab3 86bd cc75 f5bd
00000340: 9f71 fa3e b6ca d0be 3133 bebe 9514 6bbe
00000350: 63dc 103f 4932 393f c648 263f 9e95 053f
00000360: 6c2e 653e aa36 903e 6d55 9f3e d9ef af3e
00000370: 9926 c73c fb5a 0f3d f02f 93be 4bec 93be
00000380: 27b7 8c3e 1a66 b53e 8830 a63d 486b d5bd
00000390: 35c6 c73d 768d 1e3f a02d 833d d82b 2e3e
000003a0: 9341 9bbe c44a f8be 5b73 273e eb0a 913e
000003b0: f2f7 33be b1ab 18be 5e31 123e 4114 473e
000003c0: 667e 4d3e 5a0a 5e3e e680 983d 3913 be3e
000003d0: 8983 673c e51a 123f 4bad 583e a830 db3e
000003e0: fafb 09be a5d4 85be 4f01 20be 0e72 aebe
000003f0: 67b4 a8bd 6e20 0e3f c28e 9f3c 333a 09bf
-0.43849486 0.037454113 0.24992456 0.03249381 -0.61905175 -0.41489786 -0.15482506 -0.25527278
-0.0073004942 -0.83367735 0.06347053 -0.8072915 -0.33355597 -0.27685115 0.39276356 -0.63504636
-0.5483697 -0.50924206 -0.5929369 -0.3213246 0.50730884 -0.2960901 -0.049127005 0.2716757
0.026153393 0.33590978 -0.10892851 -0.13174412 0.21046406 -0.3850216 0.21347487 -0.14989188
0.08675321 0.054892108 0.58647645 0.5051584 -0.38449726 -0.042682845 -0.21693398 0.039378393
0.38221243 0.42637634 -0.8041356 0.25866485 0.40513617 0.12397893 -0.4792126 0.40292734
0.10673027 0.3319151 -0.21242104 0.14872715 -0.673436 -0.18948658 -0.13422357 -0.07641738
0.3108199 -0.50397366 0.28525376 0.2974854 -0.5485701 0.36383432 0.21329354 0.40555078
0.07442667 -0.7718567 -0.14369585 -0.16297866 -0.06938211 -0.38802627 0.36711487 0.2260282
-0.5682666 0.061640494 0.1969834 0.5053924 0.18852213 0.1992118 0.55592924 -0.21154848
0.33623952 0.40346086 0.30679852 0.28763992 -0.53878033 -0.21034127 0.10310599 0.31517255
0.13564266 -0.27367023 0.21263076 0.66320825 0.014627535 0.6711546 0.46821147 0.13085376
-0.059360825 -0.11805497 -0.034294803 0.4508483 0.22597362 0.9911469 -0.33373335 0.5130304
0.009223794 0.080270134 0.72091615 -0.7248796 -0.30258128 0.000223915 -0.74811417 -0.86012673
-0.06060752 0.13313717 0.103404716 -0.01258936 -0.74242824 -0.5117507 -0.017389845 -0.410008
-0.6455442 0.14695223 -0.1612374 0.43401825 -0.31210896 -0.102232315 -0.44503203 -0.27466986
-0.23761363 0.3177694 -0.07152236 -0.13220938 -0.54015434 0.032872226 0.066805966 0.013054185
0.14872716 0.44289687 0.2870584 0.15519221 0.40340838 -0.22935118 0.09286832 -0.19522879
0.5697158 -0.21334295 0.09103443 0.30598637 -0.06299439 -0.34738642 -0.7050828 0.53145903
0.435024 0.5240989 0.13040194 0.17965908 -0.05364668 0.40548116 -0.11572279 0.012075328
-0.056729205 0.5079738 -0.26122287 0.118103325 0.6582189 0.2694484 -0.39408994 -0.2563704
0.0010714764 -0.37935135 0.2878143 0.27064753 0.2897206 0.2632013 -0.14337307 -0.11064621
0.3709942 0.2117274 -0.57464105 -0.44936997 -0.48967305 -0.104196504 -0.40706095 -0.1728662
-0.2343816 -0.23910418 -0.2396477 0.58698905 0.07565781 0.28204167 -0.012617728 -0.05464976
-0.12974183 0.35259646 0.35067582 0.06302025 -0.15781844 -0.2671161 -0.16801095 -0.025033047
-0.72562635 0.25819957 -0.23261908 -0.052462086 0.28851444 -0.45257825 -0.06577225 -0.119853586
0.4891481 -0.40779656 -0.3714843 -0.2295707 0.56586283 0.72342354 0.64954793 0.5218142
0.2238099 0.28166705 0.31119862 0.34362677 0.024310397 0.034998875 -0.2874751 -0.28891215
0.27483484 0.3542946 0.08114725 -0.10420853 0.09754602 0.619346 0.06405187 0.17008913
-0.30323467 -0.48494542 0.16352598 0.28328642 -0.17575052 -0.14909245 0.14276645 0.1944132
0.20067748 0.21683636 0.074464604 0.3712404 0.0141304815 0.5707229 0.21159856 0.4281056
-0.13475028 -0.26138797 -0.15625499 -0.34071392 -0.08237534 0.55518234 0.019477252 -0.5360443

lstm.weight_hh_l0 f4 [20, 5]
00000000: bb2c 9d3f 0cb3 e93e d66c 8a3f 806b 043f
00000010: ea72 dcbf 9cb0 0440 88ef a43f fd75 9dbf
00000020: 8a1f 3d3f a02e 1e3f 7a76 1b40 3a61 03bf
00000030: 20ff 8bbe 8305 003f 8ed9 efbf f040 9e3f
00000040: e108 0d40 510b ed3e df99 6c40 324a 823f
00000050: cc18 5d3f 78b3 0240 494c cc3b 0f82 1c3f
00000060: ecd6 35bf 7bf0 00c0 25a8 2b3f 9fd1 31be
00000070: 9326 593d eadf 02bf d018 883f ef23 ddbe
00000080: c2d2 a8bf 7bed 24c0 6cea 6d3f 39bd 0e3d
00000090: 6e24 3fbf 13c8 e23e b7ff 96be c13f 6bbf
000000a0: 69b4 01c0 9896 98bf ca85 dfbd 066f 46c0
000000b0: 9680 24c0 3b2d fbbe 8354 cf3f 0481 b2bf
000000c0: 6d48 8d3f 6b16 a93e 5848 dfbe 4f3e d03f
000000d0: 8599 2e3f 4017 a23f 90d6 4bbe fb54 363f
000000e0: 83f7 01bf 45e6 c73f 2ae1 503f ec12 f6be
000000f0: 654f 82bf a4b0 ed3f 4648 163f dafb 1f3f
00000100: b924 a23e d6df 6dbe ff64 763f e856 3c3f
00000110: c32d 70bf b371 5fbf ac07 ca3e 128f 993e
00000120: 0897 0b3f 1f80 e0bf 42cd 0140 bcda d43f
00000130: e77c 3a3f 4b93 a9bf 425f 98bf add6 9c3f
00000140: c964 d3bf c6a0 053f 30c3 83bf 08cf d3bd
00000150: c15b a13f 1331 8fbf 4087 adbe 535b 803f
00000160: 3671 a4bf 0710 1f40 cf05 413f 968e 333f
00000170: dc69 89be d714 e93f 3fa9 c1bd 73f2 cabf
00000180: e9e5 aa3f c279 083f 9306 a93e 8b2b 5dbf
1.2279276 0.45644414 1.0814464 0.5172653 -1.7222569 2.0732794 1.2885599 -1.2301632
0.7387625 0.61789894 2.4291062 -0.5132023 -0.27343082 0.5000841 -1.8738267 1.2363567
2.203667 0.46297696 3.6968915 1.0178893 0.8636596 2.042204 0.00623468 0.61135954
-0.7103107 -2.0146778 0.67053443 -0.1736512 0.053015303 -0.51122916 1.0632572 -0.43191478
-1.3189318 -2.5769947 0.92935824 0.034848426 -0.7466496 0.4429327 -0.2949197 -0.91894156
-2.0266364 -1.1920958 -0.1091419 -3.1005263 -2.5703483 -0.49057946 1.6197666 -1.3945622
1.1037728 0.33024916 -0.4360988 1.6269015 0.68203 1.2663345 -0.19906068 0.7122342
-0.507683 1.5617148 0.81593573 -0.4806131 -1.0180479 1.8569531 0.5870403 0.6249367
0.31668642 -0.23229918 0.9624786 0.7357011 -0.93819827 -0.87282866 0.39458978 0.29991966
0.5452733 -1.75391 2.028153 1.6629252 0.72846836 -1.3248075 -1.190407 1.2253014
-1.6515132 0.52198446 -1.0293941 -0.103422225 1.2606126 -1.1186851 -0.3389225 1.002787
-1.2847049 2.4853532 0.7539949 0.70139444 -0.26838577 1.8209485 -0.09456109 -1.585524
1.3351413 0.5331079 0.33012828 -0.86394566

lstm.bias_ih_l0 f4 [20]
00000000: 8a66 11bf 7806 823e b09a 2d3e ea3a 01bf
00000010: a711 54bd fb40 053f a0ee 28bf cbd3 a5bd
00000020: d7ba 5a3e 17a1 db3e 8827 393e fcf4 c13e
00000030: 22ee 74be f080 493f 69ac f73e 5494 653e
00000040: 2046 d23e ae7f 103f 56d7 363f fdc3 7e3f
-0.5679709 0.2539556 0.1695354 -0.5048052 -0.051774647 0.5205228 -0.6598911 -0.08097037
0.21360336 0.4289634 0.18081486 0.3788222 -0.23918965 0.7871237 0.48373726 0.22419864
0.41069126 0.56444824 0.71422327 0.99517804

lstm.bias_hh_l0 f4 [20]
00000000: e4dc d9be 0c95 293f 74c3 bd3e 46ba 08bf
00000010: 8625 3e3f 4bcd 583e daf0 5fbf 7d11 fb3c
00000020: 05b6 273f 6ba8 203f d0d9 7ebe 2a3a 943e
00000030: 3c07 b9be 2880 65bd 25e2 e7bd a2d5 143f
00000040: 87fc 363f d43c d03e f23c c73e bd3c 843f
-0.4255134 0.6624305 0.3706318 -0.5340923 0.74276006 0.21172063 -0.87476885 0.030647987
0.65512115 0.62756985 -0.24887776 0.28950626 -0.36138332 -0.056030422 -0.113224305 0.5813848
0.71479076 0.40671408 0.38913685 1.0331036

lstm.weight_ih_l0_reverse f4 [20, 136]
00000000: 4c24 643e b28e b9bd d555 243e fb48 c53e
00000010: bc50 cb3d a367 d03e 2453 a0be 08a5 bbbd
00000020: cc2c 633e f809 093f 2722 183f 6ad0 493f
00000030: 1025 d13d 532b 99be 35ce 103d e8c1 193f
00000040: 8308 253f 2094 513d 0db5 053f b197 893e
00000050: a4f1 663d bf73 e23e 0bd1 9e3d e9b6 08bd
00000060: abb9 2a3e 86d3 1f3f dd9c 763e d32a 113f
00000070: b386 013e 6a98 d53b 28be 143e 5f51 b63e
00000080: 0512 993e b516 583c fdd7 363e d7a2 3dbd
00000090: b7a4 d43c 5a57 afbe 147e 63be ed14 85be
000000a0: b8c6 efbe fbcd c7be 3b15 8c3f 2601 98be
000000b0: 26ce edbe 03b9 c7be db65 263e e682 f5bd
000000c0: decc 32bf efa1 313e a73a 5b3e c155 d73e
000000d0: 5f25 ee3d a761 1e3e 3e56 66be f096 553e
000000e0: e8f5 b53a 0292 3c3f 86f3 86bc 9b3f 0c3e
000000f0: 1392 603f 5245 283e ae00 a6be 3a17 99be
00000100: f3ec 25be febc 053f fc31 e73e c6a6 ca3d
00000110: 91d6 48be 8c65 a3be 12cf 623c 6317 10bc
00000120: 6a34 c3be 4abc b63d 15e9 bb3e 53be de3e
00000130: 171c 1ebe 5e63 9ebe 471a 673e f288 493e
00000140: 725e 943e 152a 133d 46e2 a23e b223 77bc
00000150: 29a2 183d 81b8 a3be 2bc5 063f 5977 cf3e
00000160: bd3a 233d 1d64 1ebf 5a32 0c3f 603e 93bd
00000170: e44e 68bd 1fee 7dbe f0ed 713e 3bc4 6b3e
00000180: d26e ddbd fae5 953e 0fef 07be a580 d83e
00000190: 4868 a33e d9a5 103f 0317 cb3e 97c3 77bd
000001a0: 21d8 0f3f 617f 243e d5ff 8bbe c6e4 1a3e
000001b0: 4d91 0fbf d1a5 b8bd d537 b23e 31fb 12be
000001c0: 6c2c 123d 9db1 8ebe e3e2 38be 6fd7 9fbe
000001d0: 6d71 e43d e4ad 89be fa13 433e 807d 1d3f
000001e0: ae43 8abe 909b dabd 6437 58be 2354 efbd
000001f0: dc1b 5e3e b77d 90be 45cf 2ebe 28a5 8cbd
00000200: 596b aabd 2aef 123e 9e34 2cbe 0bf0 863e
00000210: 8ebc dabb 86f6 c53e e9ef 7f3e 2926 e83e
00000220: 41f8 923e db4d 513e 6bbd 03bd 8b04 4f3e
00000230: 3a32 22be 95b0 383e 377a 6cbd 21c7 7dbe
00000240: b0d9 34be 11af 133e f78e 85be 75db a53e
00000250: c64e 743a ce0e 823e 313e 9fbe 7b53 7a3e
00000260: de24 7b3f 7863 bbbb d041 0f3e 839d c13d
00000270: 9984 9c3b d84c b33e 8a33 093f d682 c73e
00000280: e029 3dbe 5ed8 213f 1a4b 0f3e 6184 94bd
00000290: d778 8d3e 3292 d0be 9a67 2ebe b49f ed3e
000002a0: 1deb 553c dc43 383e cea6 323e df9a ef3e
000002b0: 82b6 9a3e e21d 21be 90a5 8ebe 7232 a13d
000002c0: c0d4 20bf 37a6 8d3c e6e6 483e c029 00bf
000002d0: 89e3 72bd bbbe 23be 9fd5 b9bd b20f d73c
000002e0: 3194 88be ef03 353e f72f 55be 2d71 1bbf
000002f0: dd35 ba3e fe06 23bf 4b01 0abf ffa5 83be
00000300: 3687 29be 72b1 4ebc 3468 82bd 8786 9abe
00000310: b563 b4be 5051 833e a872 10bf d990 35bf
00000320: e7cb 013f a12f 8f3d c9cb 47bd ffa8 773e
00000330: 9f26 75bd ecb7 1e3e b1dc 2dbf 9dbd 9ebe
00000340: 9653 59bd 0c4a 143f ddcc 073f 57d9 de3e
00000350: 6ef5 1ebf e794 8ebe dd90 233e bd53 2f3f
00000360: a4f6 d2be 4d38 1e3e ab98 573e 03d8 cdbe
00000370: cc3d c13e f452 833e bf04 ef3e 1063 093f
00000380: b42e 1d3e 41e2 1cbf 0715 9a3e e73e 313e
00000390: 0a97 cc3d 59bd cabe a531 f43d c80c 19bf
000003a0: ab8c 1abf a76e 143e 7320 443e b1cf 183f
000003b0: 4d5d c93e cbdd 1bbe 77a0 ebbe 1a1f e63e
000003c0: e799 1b3f a2f5 06bf 044a 02bf bda5 d9be
000003d0: e7a3 2dbf eba9 e2bd e0c1 d8be faab d13e
000003e0: f735 b4be 7008 8e3e 39dc 433d 964c d4be
000003f0: 6d47 a13e d76b 80be b384 ec3e eab0 643f
0.22279471 -0.0906042 0.16048367 0.38532242 0.09927508 0.4070407 -0.3131343 -0.091623366
0.22185057 0.53530836 0.5942711 0.7883364 0.10212147 -0.29915866 0.035352904 0.600615
0.6446611 0.051166654 0.52229387 0.26873544 0.05638279 0.44228932 0.077547155 -0.03337756
0.16672389 0.62432134 0.24083276 0.5670597 0.1264904 0.0065184133 0.14525664 0.35608956
0.2989656 0.0131890075 0.1785583 -0.046297874 0.025957448 -0.3424633 -0.22216064 -0.25992528
-0.46831298 -0.39024338 1.0943979 -0.29688376 -0.4644634 -0.3900834 0.16249792 -0.119878575
-0.6984385 0.17346929 0.21409093 0.42057613 0.11628222 0.15466939 -0.22493836 0.2085836
0.001388249 0.7366029 -0.016473543 0.13696139 0.8772289 0.16432694 -0.32422394 -0.29900533
-0.1620367 0.52241504 0.45155323 0.09895091 -0.196131 -0.31913412 0.013843315 -0.008794638
-0.38125926 0.08922632 0.36701265 0.4350458 -0.15440403 -0.30935186 0.22568618 0.19681147
0.28978306 0.035928804 0.31813258 -0.015084194 0.037264023 -0.31976703 0.52644604 0.40520743
0.03985094 -0.6187151 0.5476433 -0.071896315 -0.05671586 -0.24797867 0.23625922 0.23024075
-0.10812153 0.2927702 -0.13274787 0.42285648 0.31915498 0.56503063 0.39665994 -0.060489263
0.5618916 0.16064216 -0.27343622 0.15126333 -0.56081086 -0.09016002 0.3480822 -0.14353634
0.035686895 -0.27869883 -0.180553 -0.3121905 0.11154447 -0.2689048 0.19050589 0.6151962
-0.2700476 -0.106742024 -0.2111488 -0.1168597 0.21690315 -0.28220913 -0.17071255 -0.068674386
-0.08321256 0.14349046 -0.16816947 0.26355013 -0.0066753095 0.38664645 0.24993862 0.45341614
0.28705028 0.20439856 -0.032163065 0.20216577 -0.15839472 0.1803611 -0.05773374 -0.24782993
-0.17661166 0.14422251 -0.26085636 0.32393995 0.00093195995 0.2540192 -0.31102136 0.24445908
0.9810313 -0.0057186447 0.13989949 0.09453871 0.004776549 0.35019565 0.5359427 0.38967007
-0.18473005 0.63220775 0.13993493 -0.07251812 0.27631256 -0.40736538 -0.17031708 0.46410906
0.013056544 0.17994636 0.17446443 0.46797845 0.30217367 -0.15734056 -0.2786069 0.0787095
-0.6282463 0.017291171 0.19619331 -0.50063705 -0.059299026 -0.15990727 -0.09073948 0.026252601
-0.2667556 0.17677282 -0.20819078 -0.6071957 0.3636922 -0.63682544 -0.5390822 -0.25712582
-0.16555485 -0.012615548 -0.063675314 -0.3018076 -0.3523232 0.25647974 -0.5642495 -0.70924145
0.50701755 0.06991506 -0.04877833 0.2418556 -0.059851285 0.15499848 -0.67914873 -0.31004038
-0.05305823 0.57925487 0.5304697 0.43525192 -0.62093246 -0.27847978 0.1597323 0.6848715
-0.41203797 0.15451165 0.21054332 -0.40203866 0.3774246 0.25649226 0.46683308 0.5366678
0.15349847 -0.61282736 0.30094168 0.17309152 0.09989746 -0.39597586 0.119235314 -0.5978513
-0.6037089 0.14495336 0.19153003 0.5969191 0.39328995 -0.15221326 -0.46020862 0.44945604
0.6078171 -0.52718556 -0.5089419 -0.4250926 -0.6782822 -0.110675655 -0.42335415 0.4095152
-0.35197422 0.27740812 0.047817443 -0.4146468 0.31499806 -0.25082275 0.4619499 0.8933245

lstm.weight_hh_l0_reverse f4 [20, 5]
00000000: 72b4 b03e 9ac0 d8bc a009 8140 f39f cc3f
00000010: a412 c63e 89f5 d83f 2826 5b40 7dc5 983e
00000020: 4faf 7bbf 39d4 a23f 48ab c93f 2132 67bf
00000030: 04bb 60c0 fe3d 0bbf 4c01 873e bc85 c8bf
00000040: eb8b 813f 8811 8bbe 76f6 55bf ec29 11bf
00000050: 79fa aa3e c2cc b7bf 9291 67bf 4ec1 233f
00000060: d011 24bf 2b0c a43f c682 eebf 1135 8fbf
00000070: 20cd 42bf 47b5 bbbf 9b05 be3f d766 0fc0
00000080: 18dd 803f edf7 d73f f672 91be 834e 93bf
00000090: a1b5 21c0 3159 953f dcc0 1740 ca61 bcbf
000000a0: b428 e6bd 31dd e7bf b22a 5340 ed26 f43f
000000b0: 20f1 6fba abc1 08c0 52ab 1040 0684 223f
000000c0: 7e75 96bf eb90 ff3e 574f 46c0 8943 3cbf
000000d0: 6a0b c1bf 04f6 153f 3a56 6b3f 0c80 03bf
000000e0: 33bb b5be 6a9d 593f 47de 45bf 8d2a 81bf
000000f0: 7b66 b63f 40ea 1e3f 85df 66be 8cbf 273f
00000100: 92f8 8f3f 808e 96be 9c5b 8f3f 9628 273f
00000110: 0716 00c0 1573 c73f 5994 7b3c d6e4 e0bf
00000120: 8beb edbd 52db b23f 8ce5 bebe 8bbb 87bf
00000130: 90ad b73f eb89 b53d 1eef bebf 0c8a a3be
00000140: d60e 56bf 7212 9cbf d41d 2140 85ca 123f
00000150: 09f1 a7be 8382 653f 721b adbe df35 d6bf
00000160: 469f 23bf af57 573f c032 9e3f cc12 46bf
00000170: 34f2 c13f 8a45 603f 08ab 2d3f e5d8 4dbf
00000180: 2a24 3bc0 34cf 0d40 09dd bdbd 0fed 01bf
0.3451267 -0.026459027 4.032425 1.5986313 0.38686097 1.6949931 3.4242039 0.29838172
-0.98314375 1.2721015 1.5755396 -0.90310866 -3.5114145 -0.5439147 0.26368177 -1.5665812
1.0120825 -0.27161813 -0.83579195 -0.5670459 0.3339422 -1.4359362 -0.904565 0.63966835
-0.6408968 1.2816213 -1.8633659 -1.118807 -0.76094246 -1.4664696 1.4845461 -2.2406518
1.0067472 1.6872536 -0.2840802 -1.1508335 -2.5267107 1.1667844 2.3711462 -1.4717343
-0.11238232 -1.8114377 3.299481 1.9074379 -0.0009153057 -2.1368206 2.2604566 0.634827
-1.1754606 0.4991525 -3.0985925 -0.7354055 -1.5081608 0.58578515 0.91928446 -0.5136726
-0.35494384 0.8500582 -0.77292293 -1.009111 1.4250025 0.6207619 -0.22546203 0.6552665
1.1247733 -0.29405594 1.1199832 0.65296304 -2.0013444 1.5581995 0.015355193 -1.7569835
-0.11617192 1.3973181 -0.37284505 -1.0604109 1.4349842 0.088641964 -1.4916723 -0.3194126
-0.8361639 -1.2193129 2.5174456 0.5734027 -0.32801083 0.8965227 -0.33810002 -1.673519
-0.63914907 0.8411817 1.2359238 -0.7737243 1.515204 0.8760611 0.678391 -0.8040908
-2.9240823 2.2157717 -0.09270675 -0.5075235

lstm.bias_ih_l0_reverse f4 [20]
00000000: 7321 6a3f 78aa 44be 5a2a 3ebe dffb 82bf
00000010: 8a70 573f 5938 dc3d 5748 e2be 0c9f b5be
00000020: a52b 853f 479a 85be 8cca b13e cb1b bbbd
00000030: ff5d 77be 5992 f8be 9930 113e b218 b8bd
00000040: ada3 893f faff 133f 6a28 943f 1d9e 873e
0.9145729 -0.19205654 -0.18570843 -1.0233115 0.84156096 0.10752935 -0.44195816 -0.35472906
1.0403944 -0.26094267 0.34724844 -0.091361605 -0.2415695 -0.48549154 0.14178695 -0.08989085
1.0753075 0.57812464 1.1574833 0.26487818

lstm.bias_hh_l0_reverse f4 [20]
00000000: 8477 af3e 42c3 ffbe 31c8 33bf ea85 1ebf
00000010: 70c1 3b3f df79 ffbd 9373 f4be 18a2 5fbe
00000020: 81bc 843f 2f8e 0dbf 57b6 7bbd 164c 063e
00000030: 025c cbbd 2f27 8abe a7f1 3fbe 656e 853d
00000040: 695d 9b3f 4ab3 633f d71f 583f 7537 acbe
0.3427087 -0.49953657 -0.7022734 -0.61923087 0.7334204 -0.12474417 -0.47744426 -0.21839178
1.0370027 -0.5529508 -0.06145319 0.13114962 -0.099296585 -0.2698302 -0.18744527 0.06515197
1.2137882 0.8894545 0.84423584 -0.3363606

lstm.weight_ih_l1 f4 [20, 10]
00000000: 1915 10bf b62d a1bf e0a9 ea3e 6401 9fbf
00000010: 2f52 aebe bed7 113f 48d1 0bbe b59f cd3e
00000020: b9e8 7f3e a0de bd3e 15f5 c3be 5ef6 a53d
00000030: 78f8 71be 78b9 5b3c 9c9b cabd dcb5 0bbf
00000040: 634a c13f 67e3 30bf e2a1 2f3e 032d 0dbf
00000050: 8802 683b 3888 f03a b1f7 bd3c 367b a23e
00000060: cc30 b83e 808a cd3e 1951 ecbf ba2b 3e3f
00000070: f36a 0f40 c969 973f be78 4abf c9ed 3bbf
00000080: 0fc4 99bf 9223 ebbf e075 353d 2676 1ebf
00000090: 2fe7 7cbf f388 1bbf 54eb cc3f c9b2 25bf
000000a0: 32e7 d8be 81a6 f9be eb2e c6bd a8ca 54bf
000000b0: 784a e93e 1422 bb3e 2e85 02bf 8460 ac3e
000000c0: d07e a13e 8afd 7c3e 6a99 4e3e 6db0 183f
000000d0: eea4 7dbf 15c2 51bf 60e8 ca3d fa26 c13d
000000e0: a257 033f f59d a03e 9aaa 033c ef72 67bf
000000f0: 9149 103e deee bf3d 769a 113d a42d 33bf
00000100: 8e53 503f 1ed3 b5be af03 12bf 93e4 9bbd
00000110: c655 e23e 04fe 02bf 3973 0cbf a0db 5d3e
00000120: c563 7ebc 2e4f d2be 1851 ca3e c71d 0fbf
00000130: 642b 9c3f eacb c0be 863c b0bf cef4 f93e
00000140: b60e d93e 699f 2bbf dedb e73e c218 04bf
00000150: 145c ba3c f5ac d2be f586 94bf 1cb9 cc3f
00000160: de9d 423f 09f4 cdbe 682b f53d 22da b03d
00000170: 3031 54be 9a1e 56bc 3b56 d3be 2571 b9bd
00000180: 7bcf f43e 2331 123f 513a 693e 2958 1a3e
00000190: ee8b be3e 0821 473f fef2 b6be ee1a 3e3e
000001a0: f78c b0bd 6955 ccbe 3e19 48be 753a b3be
000001b0: 35e1 a23d 9d0c 62bf fa39 773e 2491 123d
000001c0: d38e 703e 7f0f c93e 4169 5dbd c966 adbd
000001d0: f712 11bf 67ad cebe 3f34 a33c f607 533e
000001e0: 636b 293e 7468 ee3b b998 e13d 942c 4a3e
000001f0: 3673 8a3d d090 40be ea43 3d3f 6b01 aebe
00000200: fed5 65bf 190a 48be f68a 313e 53c3 a5bd
00000210: 2266 343e fbf3 003f 8f98 bdbd 2d77 d23d
00000220: 18f4 66bf 63e3 12bf b143 c13e 407c 873e
00000230: b3c0 b9be dfd0 63be bd90 1dbe 457f febe
00000240: 5851 363e 1eee a9bb 1b5d d13e b873 9c3c
00000250: a569 cebe a015 6fbe 4fb8 d33d 1392 943e
00000260: 29f6 00bf 9a2d 09bf 4b21 693c bb7b 873e
00000270: 4200 113d 5e01 c53e 610e 063f 10ad 593e
00000280: 27d8 96be 8257 253e 3e40 b63e 4381 a73d
00000290: ce4e b83d adf6 cabd d6e5 7c3f ab25 b1be
000002a0: bd12 cabe 1036 d5be 92b5 023e b239 7c3f
000002b0: 8ca9 47be c98c e7be ef64 42be 9e7c 243e
000002c0: a74f 523e d0c3 a73c a908 eb3e af1d 713f
000002d0: 2be5 b3be e752 f6bc 63a7 e6bd a526 3ebe
000002e0: 0e45 ef3d 87e1 a1be 9bb5 f33e 0e80 c43d
000002f0: db5e 223e e419 12bf cec7 39be e9fa 803e
00000300: 8d7a fc3d 9f70 81be 23d5 c23e 15f9 38be
00000310: 426e 523f cba2 6e3e 8aee b7bb c130 b43e
-0.5628219 -1.2592075 0.4583273 -1.2422299 -0.34047076 0.5696982 -0.13654053 0.4016091
0.2499112 0.37083912 -0.3827292 0.081036314 -0.2362994 0.013410918 -0.098929614 -0.5457437
1.5100826 -0.6909699 0.17151597 -0.5514681 0.00354019 0.0018351143 0.023189398 0.31734627
0.3597473 0.4014473 -1.8462249 0.7428547 2.2409027 1.1829158 -0.7909049 -0.73409706
-1.2012957 -1.837023 0.044301867 -0.6189903 -0.9879026 -0.6075584 1.6009316 -0.6472593
-0.42363888 -0.48759845 -0.09676918 -0.8312173 0.45564628 0.36549437 -0.50984466 0.33667386
0.31542063 0.24706092 0.2017571 0.59644204 -0.9907979 -0.8193677 0.09907603 0.09431262
0.5130559 0.31370512 0.00803628 -0.9040975 0.14090563 0.09371732 0.035547696 -0.6999152
0.81377494 -0.35512632 -0.5703687 -0.076119564 0.44206065 -0.5116885 -0.54863316 0.21665812
-0.015526717 -0.41076034 0.39514995 -0.5590481 1.2200742 -0.37655574 -1.376847 0.48819584
0.42394036 -0.67040116 0.45284933 -0.5160028 0.022748984 -0.4114758 -1.1603686 1.5993991
0.76022136 -0.40225247 0.1197117 0.086353555 -0.20721889 -0.013068819 -0.41276726 -0.09054784
0.47814545 0.57106227 0.22776152 0.15072693 0.37216133 0.77784777 -0.35732263 0.1856496
-0.08620637 -0.39908913 -0.19540879 -0.35005537 0.07953111 -0.88300496 0.2414321 0.035782948
0.23491983 0.39269635 -0.054055456 -0.0846687 -0.56669563 -0.4036667 0.019922374 0.20608506
0.16544871 0.0072756354 0.11015458 0.19743568 0.06760256 -0.18805242 0.73931754 -0.33985457
-0.8977965 -0.19535102 0.17338166 -0.08093896 0.17617086 0.50372285 -0.09257614 0.10276637
-0.9021621 -0.57378215 0.37746957 0.26461983 -0.3627983 -0.22247647 -0.15387245 -0.49706474
0.17804468 -0.0051858565 0.40891346 0.019098148 -0.40314975 -0.23348093 0.103378884 0.29017696
-0.5037561 -0.5358521 0.014229129 0.26461586 0.035400636 0.38477606 0.5236569 0.21257424
-0.29461786 0.16146663 0.35595888 0.081789516 0.08999406 -0.09910331 0.987882 -0.3459905
-0.3946742 -0.4164281 0.12764576 0.98525536 -0.19498271 -0.45224598 -0.18983816 0.16063163
0.20538197 0.020479113 0.45905045 0.9418592 -0.3513578 -0.030068828 -0.11262395 -0.18569429
0.11683093 -0.31617376 0.4759949 0.09594737 0.15856497 -0.57070756 -0.18142626 0.2519143
0.12328062 -0.25281236 0.38053235 -0.18063767 0.8219949 0.23304288 -0.005613153 0.35193446

lstm.weight_hh_l1 f4 [20, 5]
00000000: 83cc ce3e 4d7c edbd 4d2c 123e eeaf 0bbf
00000010: 4d2e 643f bb28 cd3e cd80 833e 58fc 96bf
00000020: bc09 773f 330e 6fbf 3920 18bf 1e72 823f
00000030: 3ea5 4e3f e111 38bf c795 74bf afef 75be
00000040: 99cd 263f eae4 13bf 351f 983e 1b26 72be
00000050: d626 c8bd faf5 73bf 9419 cfbe 31ea 87bf
00000060: 35c6 4c3d de66 cc3e 76ac f2be 3bf8 0e3e
00000070: f74c c0be a4d9 2e3f ebc8 143f 05b7 08bd
00000080: 43cf 99bf d108 dd3d 6374 5cbf 2e91 00bf
00000090: 1006 87bf 5f0b c2bf e165 353e 7555 c9be
000000a0: e912 6f3f 6891 43bd bdb0 3ebf a3a9 783e
000000b0: af3f a7bc cbc6 8ebb 44f1 cf3d 3f18 62bf
000000c0: 5aea 1bbf 30ac 40be fc91 4e3f 95c8 8ebd
000000d0: 514b 163f 24b4 5b3d 1f8b 003c f50c 2a3f
000000e0: c6e7 5e3e 7cf7 b53f 603a fa3e bf6a 403e
000000f0: 5c8a 9b3e f929 863f fff4 aa3e e479 1f3e
00000100: be19 043f 2d3f 6d3e 56b6 fc3e 2baf 6bbf
00000110: 8a94 3f3f b556 1dbf 4e66 afbe cd94 e5bc
00000120: ffeb 9a3f 13fc a2bf a7e8 1a3d 5552 d93e
00000130: 8aed 5fbf effd 03be 1bf1 b0bf 995a 173f
00000140: 8852 a8be e33b c73e 86af f7be 9549 f03e
00000150: 9a3e cdbe 7367 1abf a9cc 94bf 674a 4ebf
00000160: a3f0 84be 3436 63bf 8961 8c3e dba3 04bf
00000170: 0195 72bf 6944 bebd fff0 f7bc e030 debe
00000180: 0727 84bf f579 2dbf 47bf a3be b743 9abc
0.40390405 -0.11595974 0.14274712 -0.5456532 0.8913315 0.40070137 0.25684205 -1.1795759
0.9649923 -0.9338104 -0.5942417 1.0191076 0.8072089 -0.7190228 -0.9554104 -0.24017213
0.6515747 -0.5777117 0.2971131 -0.23647349 -0.09773032 -0.95297205 -0.40449202 -1.0618345
0.049993712 0.3992223 -0.47397202 0.1396188 -0.3755872 0.68300843 0.58119076 -0.033377666
-1.2016376 0.10792697 -0.8611509 -0.50221527 -1.0548725 -1.515972 0.17714645 -0.3932301
0.9338823 -0.047746092 -0.7448843 0.24283461 -0.020416109 -0.004357194 0.1015344 -0.88318247
-0.6090447 -0.18815684 0.80691504 -0.06971852 0.58708674 0.053638592 0.007845669 0.6642602
0.21768102 1.4216151 0.48872662 0.1879072 0.30378997 1.0481559 0.33390042 0.15573841
0.5160178 0.23168631 0.4935786 -0.9206416 0.7483603 -0.6146043 -0.3425774 -0.028025055
1.210327 -1.2733177 0.03781953 0.42445627 -0.8747183 -0.12889837 -1.382358 0.59122616
-0.32875466 0.38912877 -0.483761 0.4693114 -0.40086824 -0.603141 -1.1624957 -0.8058228
-0.2596484 -0.8875458 0.27418163 -0.51812524 -0.9475861 -0.09290392 -0.030266283 -0.43396664
-1.032441 -0.67764217 -0.3198187 -0.018831117

lstm.bias_ih_l1 f4 [20]
00000000: 38dc 743e 6876 4b3e 77ed 41bf 8e3a c03d
00000010: d7c4 0fbe 7ac1 bb3e 0cc2 803e 57c3 2e3f
00000020: 8808 8d3d 3c1a 333e 136d d83d fb72 503e
00000030: 0bf7 b03b 48b9 423e e41d 30be c560 a0bd
00000040: cba6 ad3e 2442 bc3e 447b cf3e ddee b93e
0.23912132 0.19869387 -0.7575297 0.093861684 -0.14039932 0.36671048 0.25148046 0.68266815
0.06886393 0.17490476 0.10567679 0.20356362 0.0054005436 0.19015992 -0.17198902 -0.07830957
0.33916315 0.3676921 0.40523732 0.3631505

lstm.bias_hh_l1 f4 [20]
00000000: 50c2 6cbe c8f5 5fbe d9d7 90be 8647 51bd
00000010: f6e1 c63e 9f18 123f 1bb9 e53e ede7 823f
00000020: 5c8e 523f b322 d23c d39c a63d f663 98be
00000030: 7f77 05be 6ffd d9bd 285d 8d3e 66db 6dbe
00000040: d489 163f 0e60 3e3f 977d be3c a969 ef3e
-0.23121 -0.21871102 -0.2828968 -0.0510936 0.3884427 0.5706882 0.44867787 1.0227028
0.82248473 0.025651312 0.081353806 -0.29763764 -0.13033865 -0.10644042 0.27610135 -0.23228225
0.5880406 0.7436532 0.023253245 0.467603

lstm.weight_ih_l1_reverse f4 [20, 10]
00000000: df1d dbbd 460c 8abf 5a32 683e e6ec b4be
00000010: 12c4 3cbe 665d f23d 3d18 6cbf 7cf8 1d3f
00000020: cb5f 0fbe f6a6 1e3f 1f61 13bf d249 06bf
00000030: 1378 f43b a554 253f ec75 b63d 8f33 463f
00000040: fca5 ecbe 79e2 6bbf 6545 83be f96c 653c
00000050: be16 05be 94a0 c13e a379 9dbe 1f2c 80be
00000060: 71db 9fbe db8e ffbd 9385 e7be 0b8d 453e
00000070: a1d1 4d3f c663 b83d 3d37 b8bf 4037 8e3e
00000080: 8b20 48bf 7627 f23d 0856 2abc ee55 a3be
00000090: 82a3 9a3e 4c42 e8be a6c0 c3be 6ee7 863f
000000a0: f978 4ebe 9525 20bd a7b8 aa3e 669e aabf
000000b0: 9a88 c33d ffbd 613f 3f89 03bf 2fd8 5a3d
000000c0: 5852 c23f cc1a 433e 1576 8bbe 00db c23d
000000d0: f067 9a3e fe74 81be 382b 2b3e ce5d e33e
000000e0: 5631 82be ca2d 40be f083 fd3d 3875 873d
000000f0: 6852 ee3d 4c69 413e 1e3c 9fbe 8ded bdbe
00000100: 6caf bcbd 08d5 8e3e c406 a33e fef9 b93e
00000110: f0bc ef3d bac2 c2be 20fe c13e 0a85 9c3e
00000120: dcfc 2bbe ec74 683e ae63 88be 1a14 953e
00000130: 0265 e43e b0ea 37be 107c 743e b07c 843c
00000140: fa87 903e f0b3 cd3d c0e4 c6bd 0085 87be
00000150: 3019 c53c 5e67 d33e 00e6 59bb c461 c7be
00000160: f028 003d ea61 57be 8d1e c6be 9c13 fcbd
00000170: 469b 8f3e ae5f 863e 3014 65bd 387a 4b3e
00000180: 880e c4bd d03b be3d cf4c bfbe 203f 983c
00000190: 9ea7 423f 67e8 f03e f5cc a93e bdb4 923e
000001a0: 5f6e 933d 3654 f93e 01ad 18bf 3716 423e
000001b0: 4c9c cf3d 6f34 e8bd 067a 233e 4b13 5d3e
000001c0: d39c a23d 7131 0d3f 4c6e 98be 90cf bebe
000001d0: 6c94 38bf b0c2 74be 0d70 d3be 5436 debe
000001e0: e77d cfbe 58ef 8cbe 548b 39be 3690 23be
000001f0: ca62 953e c800 8e3d a05f 46bf 9c05 913e
00000200: 92c3 303f 7c27 b9be 6724 aa3e e895 d83b
00000210: 95de afbd 2750 613f c4ab 06be f667 983e
00000220: 5c72 e9be 2fe4 b3bd bf13 063f 3cc1 b33e
00000230: 57fb 553e 40de 223e 5c2f f5bd f1d5 95be
00000240: 8b1d 66be bf6b a5be 50f8 59bc 8dc6 2a3d
00000250: 05b6 573f 21ff 413f fe21 0c3d c5a1 98bf
00000260: 7a05 b73d f464 b7be fbfe f0bd 6d49 bdbe
00000270: 96bb 98bf 60e9 3e3c 2acc 6d3e 9431 a43e
00000280: 947c e6be 522f 9dbe e27f a03b 2a15 493f
00000290: 8289 393e 55f8 053f bff6 f4be 6d34 98bf
000002a0: 2f5c 2cbf 2fa6 b93e 22c6 63be 1aea 483e
000002b0: c664 1e3e 1b1f 28bf f040 06bf 3aa8 683e
000002c0: e160 533d bd63 e23e f9d9 4a3e 6bd2 53be
000002d0: 534a 16bf 518e 0a3f 01a3 81bf 4c7b 453e
000002e0: f084 353f 6c0a 48be a87c e5be a2a6 cebe
000002f0: c113 e13c 0079 e53e 596f 11bd 85a1 b13e
00000300: dbc4 7dbd 0ed1 83bc d85e 7a3e 1565 133f
00000310: 4d3b 85be b615 0dbf 4c03 933f 1bcc 0f3f
-0.10699057 -1.0784996 0.22675458 -0.3533699 -0.1843417 0.118342206 -0.92224485 0.6170728
-0.14001386 0.6197351 -0.5757007 -0.5245639 0.007460603 0.6458228 0.089092106 0.7742242
-0.46220386 -0.92142445 -0.2563888 0.014003032 -0.12996957 0.37817824 -0.30756864 -0.25033662
-0.31222108 -0.124784194 -0.45219097 0.19292085 0.80397993 0.09003405 -1.4391857 0.27776527
-0.78174657 0.11823933 -0.010396488 -0.31901497 0.30202872 -0.4536308 -0.38232917 1.0539377
-0.20163335 -0.03909834 0.33344004 -1.3329589 0.09547539 0.88180536 -0.51381296 0.053428825
1.5181379 0.19053191 -0.27238527 0.09514427 0.30157423 -0.2528457 0.16715705 0.44407505
-0.25428265 -0.18767467 0.12378681 0.066141546 0.116368115 0.18887824 -0.31100553 -0.370953
-0.092131466 0.27896905 0.318411 0.3632354 0.11705959 -0.3803919 0.37889194 0.3057025
-0.16795677 0.22700852 -0.2663855 0.291169 0.44608313 -0.1796062 0.23875451 0.016172737
0.28228742 0.10044086 -0.09711599 -0.26468658 0.024059862 0.412898 -0.0033248663 -0.38941777
0.03128904 -0.21033445 -0.38695183 -0.12308428 0.28048152 0.26244873 -0.055927455 0.19870842
-0.09573084 0.09288752 -0.37363288 0.018584788 0.76037014 0.4705231 0.33164182 0.28653517
0.07198786 0.4869706 -0.59638983 0.18953787 0.10137233 -0.11338126 0.15964517 0.21589391
0.07940068 0.55153567 -0.2977165 -0.37267733 -0.72101474 -0.23902392 -0.41296425 -0.43400824
-0.40525743 -0.27526355 -0.18119556 -0.15972981 0.29176933 0.06933743 -0.7748966 0.28324592
0.69048417 -0.36162937 0.33230898 0.006609667 -0.08587376 0.8801293 -0.13151461 0.29766816
-0.45595062 -0.08783757 0.5237388 0.35108364 0.2089666 0.15905094 -0.11971924 -0.29264787
-0.22472207 -0.32308766 -0.013303831 0.04169326 0.84262115 0.7577992 0.034212105 -1.1924368
0.089365914 -0.3581921 -0.11767384 -0.36970082 -1.1932247 0.011652321 0.23222414 0.32069075
-0.4501692 -0.30700165 0.0048980573 0.7854792 0.18118861 0.5233205 -0.47844502 -1.1890999
-0.6732816 0.362596 -0.2224355 0.19620553 0.1546813 -0.65672463 -0.52442837 0.22720423
0.051606063 0.4421672 0.19809712 -0.20685737 -0.5870716 0.5412341 -1.012787 0.19285315
0.7090597 -0.19535226 -0.44821668 -0.40361506 0.02747524 0.44818878 -0.03550658 0.34693542
-0.061955314 -0.016090896 0.24450243 0.57576114 -0.26021805 -0.55111253 1.1485381 0.56170815

lstm.weight_hh_l1_reverse f4 [20, 5]
00000000: c77f a5be c82e 1f3d b082 8abc 4633 b1be
00000010: 05c2 5dbe 78f3 c4be 1430 8c3e dae5 65be
00000020: 1e62 9c3e 5e86 a53e 56bd 54be 18f5 f93d
00000030: 0c1c 673e 002a f43a 92e9 a23e 2009 cf3d
00000040: 97fb 51be dccc 80bd 40fc b53d 681d 263e
00000050: f454 81bd 8497 733e 26ea 8e3e 70c6 8a3c
00000060: 9525 a2be de74 a2be 5c4c e0be 782d ac3d
00000070: 80d7 afbe e0f9 363d a11f b5be e0be d4bd
00000080: 4a67 d3be 0020 aabe 121b 03be 6632 ca3e
00000090: 880a 923d e2b9 933e b8c3 963d 7ac3 6fbe
000000a0: 44fd a7be 76b2 8ebe d866 b7be c4ad 983e
000000b0: d8da de3d a035 703d 40c4 da3e faf7 a9be
000000c0: c22f 94be 4850 323e 682f 4f3e 1a1d 48be
000000d0: 98cd a63e 1467 9abe 7c39 87be 57f5 bfbe
000000e0: 5cd2 bcbe 1065 8ebc d07e 88be b839 11be
000000f0: 386b 153e 30d4 9dbd 287c 67bd 9820 90be
00000100: 5229 8d3e 3068 e13d 4cd4 013e daab 3bbe
00000110: 70a4 abbc 9837 2e3e b456 1a3e 306d 6f3d
00000120: c66a b63e 5aff 13be 6097 093e f041 d73d
00000130: be46 2fbe f003 da3c c479 123e 40b2 903c
00000140: 70b9 253e 70c1 67bd 54cd 83be 0a91 993e
00000150: 1028 79be 189f 603e 00ec 5aba 5ef7 7ebe
00000160: d468 de3e 3e71 03be d897 eabd 4021 18be
00000170: 074b d7be ec89 413e 1aec 8bbe 2a27 a73e
00000180: 8ca6 9fbe a8f1 47bd e03a af3c 682d bfbe
-0.3232405 0.038862973 -0.01690802 -0.3460943 -0.21656044 -0.38467002 0.2738043 -0.22450963
0.30543607 0.32329077 -0.20775351 0.12204951 0.22569293 0.001862824 0.31818825 0.10109162
-0.2050613 -0.06289074 0.088860035 0.16222155 -0.06315032 0.23788267 0.27913016 0.016940325
-0.31669298 -0.31729788 -0.43808258 0.0840711 -0.343441 0.044671893 -0.35375693 -0.10387969
-0.4128974 -0.3322754 -0.12803295 0.39491576 0.07130915 0.28852755 0.07361549 -0.23414412
-0.32810414 -0.2787053 -0.3582065 0.29820073 0.10881585 0.05864489 0.42727852 -0.33197004
-0.28942686 0.17413437 0.20232928 -0.19542351 0.3257873 -0.30156767 -0.26411045 -0.37491867
-0.3687924 -0.017382175 -0.2665925 -0.14182174 0.14591682 -0.07706487 -0.05651489 -0.28149867
0.27570587 0.110062 0.12678641 -0.18327275 -0.020952433 0.17013395 0.15072137 0.05845374
0.35628337 -0.14452878 0.13436651 0.105106235 -0.1711683 0.026613206 0.14304262 0.017663121
0.1618402 -0.05658096 -0.2574259 0.2999347 -0.24331689 0.2193569 -0.0008351207 -0.2489905
0.43439353 -0.12836167 -0.11454743 -0.14856434 -0.4204943 0.1890027 -0.2732857 0.32647067
-0.31181753 -0.048814446 0.021390378 -0.3733933

lstm.bias_ih_l1_reverse f4 [20]
00000000: 3e6d 333e 30aa a73e e67c 783e 9fea de3e
00000010: ab29 67be b0b5 4bbd 8d1f 96be e0b5 a6bd
00000020: 4eb5 0abe 7e40 e43e c358 553e f58c c3be
00000030: 4a4e 923e 7b03 13bd 99da 0fbd eba5 8abe
00000040: b55d ac3e 7075 063f ca36 5b3e ad5c 17bb
0.17522141 0.3274703 0.24266395 0.43538377 -0.22574489 -0.049733818 -0.29320946 -0.08140159
-0.13545725 0.44580454 0.20834641 -0.3819348 0.28575355 -0.03589199 -0.03512058 -0.2707971
0.33665243 0.52522945 0.21407619 -0.002309601

lstm.bias_hh_l1_reverse f4 [20]
00000000: 373b 0a3e b630 2bbe 5c2c 673d 6383 44bd
00000010: ba95 de3e e2d9 41be 20c7 793e 484f 413e
00000020: b2a9 da3e e2fc 8f3e 073d 78be bd51 b13e
00000030: 0c59 99bd 6c40 35bc 1993 763d f725 9e3e
00000040: 6571 ac3e 9c52 f3bd 6f2a c8bd ec03 bc3e
0.13499151 -0.167178 0.05643879 -0.047976863 0.43473607 -0.18930772 0.24392366 0.188779
0.42707592 0.28122622 -0.2424203 0.34632674 -0.074876875 -0.011062723 0.060198877 0.3088834
0.33680263 -0.11880991 -0.097737186 0.36721742

l1.0.weight f4 [128, 10]
00000000: 27a4 3abe d227 88be 2abe c63e 49d0 04bf
00000010: 87e1 52be 7bbc b339 0e6f 333e 11c5 b0be
00000020: c301 85be 631e c73e 0b35 083c c702 ae3e
00000030: 4c0d ed3d b5f6 823e df15 aebe 2a96 4a3e
00000040: bc14 9ebb 0dd0 f5be 95cb 943e fd72 053e
00000050: fcc0 543e 1686 efbd 8440 373f 0188 91be
00000060: d03a 763e 701f 173c b0ce 8e3c c928 4b3d
00000070: 1eb2 823d 218f 3bbe d263 bebc 1ab1 2bbe
00000080: f493 7f3d c746 babe 54f1 a1be ff41 afbe
00000090: 870a b8be 0461 67be 720c 63be 6495 fbbe
000000a0: 9831 22be d7d8 af3d 5639 efbe 095f 943d
000000b0: 1186 1bbf 68ec 5abe a448 17be f75e 493c
000000c0: 6567 083e 5e3c 573e 718e c9bc 96b5 b8bd
000000d0: be83 353f 4ec8 633c f722 51bc 6141 14be
000000e0: 5cac 7abe c324 dd3d e9dc ebbc fa7a 9abe
000000f0: c91b 99bd 3706 8cbe 3100 4bbe 1a0c 51be
00000100: 8bc6 4bbb a023 33bf b925 adbc 8fb1 e93a
00000110: 01c6 afbd a703 27bf 2c6c 003d b71f babe
00000120: 8c68 253e 2704 383d 0fd1 40be 41c3 e23c
00000130: 53f6 3a3f 348f 903e 2746 163e 86dc 08bd
00000140: c6f5 e33e 788d 4ebd 675e b0be fbfa 64be
00000150: cca4 9ebe 72ab 9ebe 6854 98be 04d4 993e
00000160: 13f6 6abe e541 76be 8de3 11bf 261a 74be
00000170: 10b9 ddbc 38ed b43e 0e3f ab3d 63f4 8a3e
00000180: d54f 22be 2051 49be 1d74 e83e acb6 ab3d
00000190: c789 acbd cc72 fe3d 53da 013e 0ee2 91be
000001a0: ab68 ff3e 81f4 98be 5f0c a4be 4110 aebd
000001b0: e851 b8be af8a 6dbe cc2f 133e 9c32 1a3f
000001c0: e752 b93e 9ccd 373e 2bae 0a3e 2915 e73e
000001d0: b0f3 523e a1af d23c fabe 5f3e e6e2 a23d
000001e0: 2eec 303f 6969 a83d c7da 1ebe 2589 953d
000001f0: fae0 14be adc0 dd3d 9042 943e b64a 95be
00000200: 98da 613c 372e 183e 3019 e63d d716 683e
00000210: fb58 fbbe 4603 6ebd 11c7 cb3d e4b1 c33d
00000220: 50d3 cb3d b1c0 abbe 6fcb 41be 286e 61be
00000230: a0ec 27bf 14ea db3d 0780 ffbd e19b 6e3e
00000240: 1b54 563d 99b1 183e f797 c23c f0de a5be
00000250: 9478 113f 152a 793e 6389 f4bc f4d4 503e
00000260: 208a 05bf 092c 1fbe 033c 213e 2480 c03d
00000270: 0ae8 0a3e b287 f7bd 72f3 55be f2b1 5e3e
00000280: 124b 103e ff54 8bbe f349 cfbe 4f31 f5bd
00000290: 2067 823e e628 023e 59e5 0b3f a331 1cbe
000002a0: 51e7 adbc a471 87be 2a3e 6c3e adbd ccbe
000002b0: 0b29 473e 3d29 cc3d 6731 223e 0f9a 57bd
000002c0: db40 f63e 7836 b83e 71f8 05bf 8321 c8be
000002d0: 498d 1d3d e082 50bd b4b6 e03e 958f 593e
000002e0: 4d9f c93e 445b 8d3d 1e9d e43d 4a83 96bc
000002f0: fdb6 9ebe 9242 223e 376b d8be af9b c9be
00000300: b7a1 313e 35f3 d6bd da64 9dbe 6fcd 903e
00000310: b0ba 5abd 0b19 e43e 87c1 863e a1b9 d9bc
00000320: a138 12be c782 593e 968f f43e 2398 f1bd
00000330: 4ede 203e 3033 a73d d68e c9bd c65c 33be
00000340: 35be 873e d26e 09bf 0f8e a73d 82eb ed3d
00000350: ef5b 363f 99d2 a3bd fd79 53be 2bff 01be
00000360: d775 673d 158a 97be aa07 c9bb ba25 8d3d
00000370: aabc 06bd 8c3f ee3d b808 1bbd 531b 01bf
00000380: 6a22 97be 9a6f 92bd 0750 0a3e 5334 583c
00000390: 9cf3 f73d 711e 14be 5526 54bd bd81 2f3e
000003a0: 667b f8be 10f6 203e dfa4 67be c0de b73d
000003b0: 7389 6a3e 693a 3f3e 7bab 633d d871 bbbe
000003c0: da89 963c cac3 893e 9060 cf3d 5e6e 63bd
000003d0: 9a17 11bf 8f0a db3d 895f 863d 92f3 9d3d
000003e0: 603c eebd 887a b03b 95c2 0dbc 1061 4cbe
000003f0: f6f6 603e 0ca3 fe3d 0795 1e3e 3a32 f73e
-0.18226682 -0.2659288 0.3881696 -0.5188032 -0.20593844 0.0003428197 0.17522833 -0.3452535
-0.25977907 0.3889037 0.008313428 0.33986494 0.11574802 0.25578848 -0.3400106 0.19783846
-0.004824249 -0.48010293 0.2906157 0.13032146 0.20776743 -0.11695497 0.7158282 -0.28424075
0.24045873 0.009223804 0.01743254 0.049599443 0.063816294 -0.18316318 -0.023240957 -0.16766778
0.06239696 -0.36382124 -0.3162943 -0.3423004 -0.35945532 -0.22595602 -0.22172716 -0.49137414
-0.15839231 0.08586281 -0.4672343 0.07244689 -0.60751444 -0.21379244 -0.14773804 0.012290708
0.13320692 0.21019122 -0.024604054 -0.0901901 0.7090415 0.013902737 -0.012764684 -0.14478065
-0.24479812 0.10798027 -0.028791862 -0.3017195 -0.07476003 -0.27348492 -0.19824292 -0.20414773
-0.0031093683 -0.69976234 -0.021136152 0.0017829406 -0.08582688 -0.6523995 0.03135316 -0.36352322
0.16153163 0.044925835 -0.1882975 0.027680995 0.7303211 0.28234255 0.14675198 -0.033413433
0.44523448 -0.050427884 -0.34447023 -0.22361366 -0.30985105 -0.30990177 -0.29751897 0.30044568
-0.22945432 -0.24048574 -0.5698784 -0.238381 -0.027065784 0.35337234 0.08361636 0.27139577
-0.15850766 -0.19659853 0.45401087 0.08384451 -0.084247164 0.124242395 0.1268094 -0.2849278
0.49884543 -0.29874042 -0.32040688 -0.08499194 -0.3599999 -0.23197435 0.14373702 0.60233474
0.36196062 0.17949528 0.13543002 0.4513333 0.20600772 0.025718512 0.21850196 0.07953434
0.6911038 0.082232304 -0.15513144 0.07301549 -0.14538947 0.108277656 0.28957033 -0.29158562
0.013785027 0.1486138 0.11235273 0.22664963 -0.49091324 -0.05810859 0.09950078 0.09555414
0.09952414 -0.3354545 -0.1892526 -0.22014678 -0.65595436 0.10738006 -0.12475591 0.2330165
0.052326303 0.14911498 0.023754103 -0.3239665 0.5682461 0.2433246 -0.029850667 0.20393735
-0.5216389 -0.15544142 0.15745549 0.09399441 0.13565078 -0.12086429 -0.20893648 0.21747568
0.14091137 -0.27213284 -0.40486106 -0.119722955 0.25469303 0.12710914 0.5464683 -0.1525331
-0.021228464 -0.26453888 0.23070589 -0.3998846 0.1944925 0.09968803 0.15839158 -0.052637156
0.48096356 0.35979056 -0.52332217 -0.39088067 0.03846482 -0.050906062 0.4388939 0.21246178
0.3937935 0.06902173 0.1116278 -0.01837315 -0.30998984 0.15845707 -0.42269298 -0.3937659
0.17346846 -0.10495607 -0.30741006 0.28281733 -0.053400695 0.44550356 0.26319525 -0.026577773
-0.14279415 0.21241294 0.47765797 -0.11796596 0.15709803 0.0816406 -0.09841697 -0.17515859
0.26512304 -0.53684723 0.081813924 0.11617185 0.7123403 -0.07999153 -0.20652004 -0.12694995
0.056508865 -0.29597536 -0.006134947 0.068919614 -0.032894768 0.11633214 -0.03785011 -0.5043232
-0.29518443 -0.071501926 0.1350709 0.013196069 0.12107012 -0.14464737 -0.05179437 0.17139335
-0.48531646 0.15718865 -0.22621487 0.08978033 0.22903995 0.18674625 0.05558346 -0.36610293
0.01837628 0.26907188 0.1012584 -0.055525176 -0.5667664 0.10695373 0.06561191 0.07712473
-0.11632609 0.0053857006 -0.008652349 -0.19958901 0.21969208 0.124334425 0.15486537 0.48280507

l1.0.bias f4 [128]
00000000: df18 753e 951f 6c3e a9d2 3f3e 796c 37bc
00000010: 45da 793e fba8 b03e 80ac 9cbd fc14 c53d
00000020: c011 4d3e e9c2 613d 793b 9c3e d2c2 163e
00000030: 5ffa b3be ca09 08bd acdd 513b 43ef f43d
00000040: f87d 69be 27d6 e93d b759 3fbe 93c5 3abe
00000050: 4d90 95be fe75 983e 2ade 51be d76a 8f3d
00000060: 0f00 43bd 41c5 f93d 74d8 413e 7eb9 3abe
00000070: 9524 75be c7f9 dd3d b0b7 9abe 1cf0 403d
00000080: 739d 78be 1939 cd3e 12db 293e 2fd7 2d3e
00000090: b3fe 943e 5434 2d3e 2fd0 f9bd 55b8 e4bd
000000a0: 3e87 64be 61a0 a83e 96d6 863e 977b 38bc
000000b0: bfc0 183e 549a dfbd 2d27 e53d fd54 23be
000000c0: 1784 8cbc 2778 923e 6625 58be c844 45be
000000d0: 6aa0 30be 0fed 873d 0e90 4cbd 3036 343e
000000e0: b3d0 823d a447 773e 58ad 4abe 2631 8dbe
000000f0: 0412 5cbe 5e29 cf3d f33a 89be 6071 02be
00000100: da30 a3be 2082 99bc f097 833b deff 81be
00000110: f240 a8bd 56ae 893e 53f3 123d 44e3 46be
00000120: 41f8 babd 456c 153c eae1 7d3b cc65 ebbc
00000130: 7958 25be 4879 1fbe f6ef a83d 6c89 d5bd
00000140: 4494 0a3e 3250 f0bc c834 893e c585 8fbd
00000150: 90c8 06bc 5058 4bbe c94d 43bc 19f3 103e
00000160: 2b25 3dbe cd63 bcbe 78ad 843e d4e9 79be
00000170: 89cd 5ebe 9edc 62bd c1f2 00be 3dd4 513e
00000180: 250e 71be d225 4c3e 5576 62be 4db9 403e
00000190: 4e9b 4e3d 3695 53be 1545 00be bab6 d63d
000001a0: e26e 5c3e 6336 8b3d f398 73bd 0086 e5bc
000001b0: be3c 783e c480 033e 95b5 30be 7f6e 0c3e
000001c0: f258 8d3e e05a 073e 390f 573e 13a6 f8bc
000001d0: 0381 4c3e 3fcf 80be 57ba 433b f3f2 723d
000001e0: 1425 033e 9eb6 2cbd ca03 e9bb e686 c2bd
000001f0: f4eb be3d 4f19 b5bd 464d 943d 9b63 73bd
0.23935269 0.23058923 0.18732704 -0.0111952955 0.2439967 0.34503922 -0.07650089 0.09623143
0.20026302 0.05511752 0.30514124 0.14722756 -0.35151955 -0.03321246 0.0032022996 0.11959698
-0.2280196 0.114177994 -0.18686567 -0.18239431 -0.29211655 0.2977752 -0.20494905 0.070028
-0.047607478 0.12195826 0.18930227 -0.18234822 -0.23939736 0.10838657 -0.30218267 0.047103986
-0.24278812 0.40082625 0.16587475 0.16976617 0.2910057 0.16914493 -0.12197911 -0.11167971
-0.22317216 0.3293486 0.2633559 -0.011259935 0.14917277 -0.10918108 0.11189113 -0.15950389
-0.01715283 0.28607294 -0.21108016 -0.19264519 -0.17248693 0.06637012 -0.04994207 0.17598796
0.063874625 0.24148422 -0.19792688 -0.2757656 -0.21491247 0.10115312 -0.26802787 -0.12738562
-0.31873208 -0.018738806 0.004015915 -0.25390524 -0.08215512 0.2689082 0.035876583 -0.19422632
-0.09129382 0.009120052 0.0038739392 -0.028735064 -0.16147031 -0.15573609 0.08248894 -0.10426602
0.13533121 -0.029335115 0.2679808 -0.070079364 -0.008226529 -0.19857907 -0.011920401 0.14155234
-0.1847121 -0.36794892 0.25913596 -0.24405605 -0.21758093 -0.05538618 -0.12592603 0.20491119
-0.23540552 0.19936302 -0.22115453 0.18820687 0.05044108 -0.20662388 -0.12526353 0.10484071
0.21526673 0.06797483 -0.059472036 -0.028017998 0.24241921 0.12842089 -0.17256768 0.13714026
0.27606922 0.1321826 0.210019 -0.030352628 0.19971089 -0.25158116 0.0029865706 0.059313726
0.12807113 -0.042166345 -0.0071110474 -0.09498386 0.09322348 -0.08842718 0.07241301 -0.059421163

l1.1.weight f4 [128]
00000000: 3e46 7e3f 6142 573f 8093 5b3f 1d28 6f3f
00000010: 5fe0 513f b8f1 833f aafc 3c3f e8ca 673f
00000020: e7db 653f 9215 7c3f cd6e 723f e458 703f
00000030: 3405 963f af3b 7f3f c8aa 963f 9f24 823f
00000040: a51c 4e3f 3c1d 653f 513b 823f c48e 453f
00000050: a99a 5f3f 6870 993f 2d36 993f 6caa 2d3f
00000060: b585 973f c730 753f 9be7 833f dc5d 7b3f
00000070: 9205 ab3f 02f6 683f 0911 783f 7d29 9d3f
00000080: 26c2 803f cce8 773f 3a00 693f 8bac 273f
00000090: e97e b23f b9a7 873f 2326 723f 68f0 663f
000000a0: 9f28 8f3f b820 6a3f ae3c 623f 00d7 873f
000000b0: 3adc 513f 03df 6e3f 6fa1 883f 9d2a 723f
000000c0: dc2f 773f a44a 8a3f 971a 533f debb 773f
000000d0: a169 9f3f 603c 653f 53a0 423f 1236 6e3f
000000e0: bc1a 833f 6b5e 523f 2193 853f d976 893f
000000f0: eea9 553f 7d36 6f3f c3c8 8a3f 717c 7a3f
00000100: 32ae 703f cb68 903f c43f 7a3f 262e 813f
00000110: 5023 543f e95c 763f 5c38 833f 252f b23f
00000120: 9b01 6d3f cf9f 4c3f 416d 803f 7741 643f
00000130: 70a8 723f 1cb7 783f 67fa 883f b9db 823f
00000140: 9754 583f f6c9 8f3f 6f75 843f abb8 813f
00000150: 0d6d 823f 8278 773f 8d4d 603f 5dbd 5a3f
00000160: 1252 873f ca86 483f baec 563f 2a80 953f
00000170: a549 833f dce6 7c3f 3ce8 9e3f 8ff0 9d3f
00000180: a344 843f c779 6c3f 97ce a03f b5dc 833f
00000190: 0362 883f b27b 653f 2a18 a73f b215 8f3f
000001a0: 7fe5 863f 40d4 a43f e21f 673f 0247 6e3f
000001b0: 0067 883f 180b 883f fd3b 773f c146 823f
000001c0: a056 463f ecb0 463f 17a7 893f 6403 6d3f
000001d0: 54c6 883f 4b60 6a3f 844a 6b3f c966 813f
000001e0: 194e 843f 9c70 823f daac 5b3f addd 7e3f
000001f0: 99b2 663f 197a 743f 2475 853f 88ff 3d3f
0.9932593 0.8408566 0.8577194 0.93420583 0.8198299 1.0308142 0.73823035 0.90543985
0.8978867 0.98470414 0.9470032 0.93885636 1.1720338 0.99700445 1.1770868 1.0167426
0.8051246 0.89497733 1.0174352 0.7717097 0.8734537 1.1987429 1.1969658 0.6783817
1.1837679 0.95777553 1.0305055 0.98190093 1.3361075 0.9100038 0.96900994 1.2278286
1.0059249 0.96839595 0.9101597 0.65497655 1.394498 1.059806 0.9458944 0.9021058
1.1184272 0.91456175 0.8837384 1.0612488 0.81976664 0.9330904 1.0674266 0.9459627
0.965574 1.0804029 0.8246245 0.9677104 1.245411 0.8954525 0.76025885 0.93051255
1.0242534 0.8217532 1.0435525 1.0739394 0.8346242 0.9344252 1.0842518 0.9784613
0.940158 1.128198 0.9775355 1.0092208 0.8286638 0.9623552 1.0251575 1.3920637
0.92580575 0.7993135 1.0033342 0.8916239 0.94788265 0.971544 1.0701417 1.0223304
0.84504074 1.1233509 1.0348338 1.0134481 1.018953 0.96668255 0.87618333 0.85445195
1.0571921 0.7833067 0.83954966 1.1679738 1.025685 0.98789763 1.2414622 1.2339038
1.0333446 0.9237332 1.2563046 1.030173 1.0654911 0.8964187 1.3054249 1.1178496
1.0538787 1.2877274 0.90283024 0.930771 1.0656433 1.0628386 0.9657591 1.0177842
0.7747593 0.7761371 1.0754117 0.925833 1.0685525 0.9155318 0.91910577 1.0109493
1.0336334 1.0190616 0.85810626 0.99557 0.9011627 0.95498806 1.0426373 0.74218035
